src/code/source-code/download-model2nas/bge-m3/sparse_linear.pt (torch, 3516 bytes, 1 tensors)

weight f2 [1, 1024]
0	0x0d6c	0.000331
1	0x1331	0.000878
2	0x9af3	-0.003393
3	0x998e	-0.002712
4	0x9ce7	-0.004787
5	0x96b5	-0.001637
6	0x9cd6	-0.004723
7	0x1b24	0.003487
8	0x1124	0.0006275
9	0x1090	0.000557
10	0x9ed0	-0.006653
11	0x1637	0.001517
12	0x9423	-0.00101
13	0x911e	-0.0006247
14	0x999d	-0.00274
15	0x9b2b	-0.0035
16	0x92ea	-0.000844
17	0x00d5	1.27e-05
18	0x9866	-0.002148
19	0x9d11	-0.004948
20	0x98f7	-0.002424
21	0x9888	-0.002213
22	0x95cb	-0.001414
23	0x9c66	-0.004295
24	0x9ac1	-0.003298
25	0x18dd	0.002375
26	0x91de	-0.000716
27	0x0ac4	0.0002065
28	0x94db	-0.001185
29	0x9865	-0.002146
30	0x18eb	0.002401
31	0x9cb4	-0.004593
32	0x9c09	-0.00394
33	0x9d10	-0.004944
34	0x9285	-0.000796
35	0x1d30	0.005066
36	0x8fb1	-0.0004694
37	0x1451	0.001054
38	0x16ec	0.00169
39	0x9d21	-0.00501
40	0x9918	-0.002487
41	0x9b7b	-0.003653
42	0x1258	0.0007744
43	0x9ac8	-0.003311
44	0x19d3	0.002844
45	0x1542	0.001284
46	0x9d9b	-0.005474
47	0x2015	0.00797
48	0x1a0f	0.002958
49	0x986f	-0.002165
50	0x8dd7	-0.0003564
51	0x10cb	0.000585
52	0xa041	-0.00831
53	0x9c26	-0.00405
54	0x1910	0.002472
55	0x94ab	-0.00114
56	0x1059	0.0005307
57	0xa021	-0.008064
58	0x9c87	-0.00442
59	0x1ddc	0.005722
60	0x1af9	0.003405
61	0x9938	-0.002548
62	0x1927	0.002516
63	0x1f97	0.007412
64	0x8ff5	-0.0004857
65	0x9437	-0.001029
66	0x93a8	-0.0009346
67	0x187d	0.002192
68	0x9f6c	-0.007248
69	0x9347	-0.0008883
70	0x96cc	-0.001659
71	0x9e0f	-0.005917
72	0x0a46	0.0001915
73	0x9953	-0.0026
74	0x104e	0.0005255
75	0x1ba0	0.003723
76	0x1126	0.0006285
77	0x9aa6	-0.003246
78	0x9a35	-0.00303
79	0x9f37	-0.007046
80	0x968c	-0.001598
81	0x978d	-0.001843
82	0x189c	0.00225
83	0x9c51	-0.004215
84	0x9cbc	-0.004623
85	0x1c7d	0.004383
86	0x9dca	-0.005653
87	0x144b	0.001048
88	0x9d28	-0.005035
89	0x9630	-0.001511
90	0x9936	-0.002544
91	0x9c20	-0.00403
92	0x99c6	-0.00282
93	0x128f	0.0008006
94	0x9c8e	-0.004448
95	0x9a07	-0.002943
96	0x9e3c	-0.00609
97	0x9623	-0.001498
98	0x9582	-0.001345
99	0x93b5	-0.000941
100	0x09bf	0.0001754
101	0x9004	-0.00049
102	0x9c6c	-0.00432
103	0x9dae	-0.005547
104	0x9e82	-0.006355
105	0x9447	-0.001044
106	0x1d66	0.005272
107	0x98a1	-0.00226
108	0x1c64	0.004288
109	0xa086	-0.008835
110	0x1c2a	0.004066
111	0x9139	-0.0006375
112	0x992f	-0.002531
113	0x9e7d	-0.006336
114	0x9aff	-0.003416
115	0x98ef	-0.002409
116	0x9c82	-0.004402
117	0x95b5	-0.001393
118	0x152d	0.001264
119	0x1727	0.001746
120	0x14bc	0.001156
121	0x184c	0.002098
122	0x9c86	-0.004417
123	0x1aa7	0.003248
124	0x17f3	0.001941
125	0x1434	0.001026
126	0x1840	0.002075
127	0x1a98	0.00322
128	0x1eca	0.00663
129	0x9eba	-0.00657
130	0x9854	-0.002113
131	0x12b9	0.0008206
132	0x80ec	-1.407e-05
133	0x9d9d	-0.00548
134	0x994a	-0.002583
135	0x13c0	0.000946
136	0x1902	0.002445
137	0x1b7a	0.00365
138	0x137d	0.000914
139	0x160a	0.001474
140	0x1b43	0.003546
141	0xa070	-0.00867
142	0x9d9f	-0.00549
143	0x1c76	0.004356
144	0x9663	-0.001559
145	0x9673	-0.0015745
146	0x1bfe	0.003902
147	0x1907	0.002455
148	0x1958	0.00261
149	0x9602	-0.001467
150	0x9ef2	-0.006783
151	0x99af	-0.002775
152	0x9989	-0.002703
153	0x1b0d	0.003443
154	0x99c2	-0.002811
155	0x9bcb	-0.003805
156	0x9907	-0.002455
157	0x9bfe	-0.003902
158	0x1a17	0.002974
159	0x1662	0.001558
160	0x1c03	0.003918
161	0x9fa0	-0.007446
162	0x8b3c	-0.0002208
163	0x1820	0.002014
164	0x1d81	0.005375
165	0x15c4	0.001408
166	0x9430	-0.001022
167	0x8429	-6.35e-05
168	0x1e78	0.006317
169	0x9e19	-0.005955
170	0x9dce	-0.00567
171	0x10f1	0.000603
172	0x0034	3.1e-06
173	0x9cc2	-0.004646
174	0x9f74	-0.00728
175	0x9863	-0.002142
176	0x1224	0.0007496
177	0x25af	0.0222
178	0x97c5	-0.001897
179	0x9978	-0.00267
180	0x9975	-0.002665
181	0x9c1a	-0.004005
182	0x96ef	-0.001693
183	0x0b01	0.0002137
184	0x9ca2	-0.004524
185	0x9483	-0.0011015
186	0x1bb0	0.003754
187	0x1a7f	0.003172
188	0x9e8d	-0.006397
189	0x1085	0.0005517
190	0x0f6b	0.0004528
191	0x9d55	-0.005207
192	0x9d79	-0.005344
193	0x9c40	-0.00415
194	0x9bb9	-0.00377
195	0x9a1f	-0.002989
196	0x91a0	-0.0006866
197	0x92bd	-0.0008225
198	0x9d48	-0.005157
199	0x9cc7	-0.004665
200	0x9c75	-0.004353
201	0x9d1f	-0.005
202	0x947d	-0.001096
203	0x9877	-0.00218
204	0x8096	-8.94e-06
205	0x91fd	-0.000731
206	0x18b6	0.0023
207	0x9c47	-0.004177
208	0x9dc9	-0.00565
209	0x96e3	-0.001681
210	0x106b	0.0005393
211	0x9c48	-0.00418
212	0x9c0e	-0.00396
213	0x8e99	-0.0004027
214	0x14bc	0.001156
215	0x9161	-0.0006566
216	0x858a	-8.45e-05
217	0x97c3	-0.001895
218	0x0756	0.00011194
219	0x0e97	0.0004022
220	0x943d	-0.001035
221	0x1905	0.00245
222	0x9be8	-0.00386
223	0x1b35	0.00352
224	0xa005	-0.00785
225	0x9ce0	-0.00476
226	0x1582	0.001345
227	0x9500	-0.001221
228	0x9951	-0.002596
229	0x174f	0.001784
230	0x19f3	0.002905
231	0x9ed4	-0.006668
232	0x173f	0.001769
233	0x9e0f	-0.005917
234	0x95cb	-0.001414
235	0x9a81	-0.003176
236	0x9e84	-0.006363
237	0x171b	0.001735
238	0x8811	-0.0001241
239	0x97de	-0.001921
240	0x1c44	0.004166
241	0x95a0	-0.001373
242	0x9d7a	-0.00535
243	0x149e	0.001127
244	0x1bf7	0.00389
245	0x1835	0.002054
246	0x94ed	-0.001203
247	0x9c5b	-0.004253
248	0x9933	-0.002539
249	0x9469	-0.001077
250	0x90f4	-0.0006046
251	0x9aff	-0.003416
252	0x1928	0.002518
253	0x1b32	0.003513
254	0x99f0	-0.0029
255	0x1b04	0.003426
